NeuralNetwork-code/RNN_model.params (torch, 126729 bytes, 19 tensors)

rnn.weight_ih_l0 f4 [256, 21]
00000000: e391 a381 d5f1 5a3a ef9e 07bc 294c 88bd
00000010: ac4f 67bd f206 50bd a29b 9cbd de79 73bd
00000020: 7a88 07bd 0320 51bc facb 0e3d a1fc 83bc
00000030: 68ba db3c 986b 63bc 3fa6 9fbc 05cb a8bc
00000040: 149d 113b df58 26bd 44c6 4abd 45d6 063c
00000050: 5cda 85b9 7841 69a8 1a0f c73e c381 d7be
00000060: 9c9e 933e dbbe b13e 0bda 9dbe 1e80 a33e
00000070: 169a d5be cdd2 993e e429 f0be 3cc3 8a3e
00000080: 525f 803e 0d47 00bf 5148 fabe ddcd e63e
00000090: 7087 ecbe b18f ae3e 20ce 6d3e 3e90 803e
000000a0: ae84 8e3e 9de6 e5be a0e9 2d9f e263 fcbc
000000b0: 04ee 323c 9c4c a9bc 11dd c33b 0025 c4ba
000000c0: d016 8ebc 9498 89bd dd82 f2bb 61a1 f3bc
000000d0: f9be 023c 1340 ccbc 1d1a 5ebc 0551 73bd
000000e0: bd3a 9bbc 5240 1dbc 6677 a9bc d621 11bc
000000f0: 8577 30bd d434 3b3d 436e 90bc 7841 69a8
00000100: eeb5 7bbd 2e87 c33e e6f0 0fbf 98e2 8f3d
00000110: 584b 123f bf82 1e3e 5f5a 20be 9cbf 503e
00000120: ee5d 623e 608b 22bc 2144 1fbf 9fdc 443e
00000130: faa4 963e 4c56 553e 7ef6 093d da86 19be
00000140: 18a7 c6bd 6c9f 88bd 1bc9 63be f6e5 1e3e
00000150: ac5d cb9e 07bb c0bc 2d2d 3fbd 4468 01be
00000160: ea63 3fbd 6625 183b ba7a a53d 0488 3e3d
00000170: da83 dd3c ad9d febc 2ca2 b93c 7279 183d
00000180: 9bb4 7ebd 27c9 5ebc 810d 42bd 5c50 0a3c
00000190: a3c5 9cbd 0144 3c3d 0cf9 0dbd f081 2b3b
000001a0: e8ec 5abc 7e9e 722b 8db7 8bbd 2099 c9bc
000001b0: 513a 3dbd 4f2a 0b3d 681e aebc cd5c f93c
000001c0: c29c a5bb d1e2 82bd 7597 c0bb 6c38 39bd
000001d0: f6ba 8d3c 368d 4dbd 8ddd c9bc 0f27 b13d
000001e0: 1d5e 193d e4ec 54bc 4d9a 073d ff7c 0dbc
000001f0: 0ba2 73bd 7380 88ba 00f4 e5ad e9a0 653d
00000200: 83fb afbd ec60 02be 31d2 a5bd 8c1d 19bd
00000210: 77d8 0ebd 9d30 40bd c3d7 053d 8f38 9e3d
00000220: 14ce 96bd a5b8 5ebd a61a 0ebe e9c3 ac3d
00000230: c842 353b 961f 743d e518 8d3c a621 31bc
00000240: f6ac 2d3d 81e6 05be 9576 f6bc 524b 42ad
00000250: cb09 11bf 0de3 543f 138a a73e 692f 62be
00000260: 9e52 2a3f 7ebf f13b 8085 263d b4ec 003f
00000270: 72eb abbe 88bb a8be fdfe c63d 9f16 79be
00000280: ee4a 043f 8b0e 0abf 56fe c4be 916b 963e
00000290: 6dce ddbe 8acd a33d 60a5 18ba f001 20bf
000002a0: 0966 3038 3775 e73d cf37 88bd 23c5 a03c
000002b0: ed16 d8bc cc95 683d 8238 18be a6f9 b2bd
000002c0: c0c2 703d a803 813c 425e ba3c 24ad 0abd
000002d0: a889 53bc b78f f43c 6f89 e9bd 1aa8 87bd
000002e0: 4ce8 dbbb 3839 8abd c228 923c 0c50 deba
000002f0: 32c2 0abe 4662 0da5 719f 15be b0c8 783d
00000300: 2d27 17bd 400d aebd 7ead 873d ff1c 58bd
00000310: 049f afbc 7c44 78bd 5ba2 a5bc 229d 70bb
00000320: 26f9 03bb 1e83 28bc f5e3 58bd 383c 523d
00000330: fc67 47ba 72bd f9bc 7ac0 b8bd e4df 6dbd
00000340: 7166 2bbd a29e e0bc 7e9e 72ab d2b9 6b3e
00000350: 8d12 dd3d 364f 4d3e 557c 4d3d 3c22 1c3d
00000360: 826f e43d 58a4 4e3e ffe0 163e b9bb 473e
00000370: 95c8 c1bd 60df 9f3c 3fd9 963d 3932 623d
00000380: 99b3 cbbd 8099 66bd 6c83 d0bd 0d80 133e
00000390: dbae 1ebd 7ca3 a5bc 61b1 c4bd 7841 6928
000003a0: 38ca e83b 338c 0ebd a6f4 5dbc 1725 a3bc
000003b0: a390 a7bc 9a26 90bc cced 71ba 61b2 aebc
000003c0: 9cc6 c5bb 935a 69bc 73f4 713c 201a 29bc
000003d0: 819a 4bbc e221 aa3c a6ee e23c 97b0 cebc
000003e0: c249 28bb c092 6d3d 3773 f5bc 8fb2 c7bc
000003f0: 6a73 22b7 c3f5 a7bd c4ec 933d d0b6 23bd
-6.008608e-38 0.0008352076 -0.008277639 -0.066551514 -0.056472465 -0.050787874 -0.07646872 -0.059442393
-0.03308914 -0.01276398 0.034862496 -0.016111674 0.026822284 -0.013880633 -0.019488452 -0.02060462
0.002221887 -0.040612098 -0.049505487 0.008229797 -0.00025530427 -1.29482945e-14 0.3887871 -0.42091188
0.28831947 0.34715924 -0.30830416 0.31933683 -0.4171912 0.3004364 -0.4690696 0.27102077
0.25072724 -0.50108415 -0.48883298 0.45078936 -0.4619708 0.34094003 0.23223162 0.25110048
0.27835602 -0.44902506 -3.6827425e-20 -0.030809347 0.010921005 -0.020666413 0.005977281 -0.001496464
-0.017344862 -0.06718555 -0.007400854 -0.029740037 0.007980102 -0.024932897 -0.013556031 -0.059403438
-0.018948907 -0.009597855 -0.020686816 -0.008858165 -0.043082733 0.045704678 -0.017630702 -1.29482945e-14
-0.0614528 0.3818907 -0.56226957 0.07025641 0.57146215 0.15479563 -0.15659474 0.20385593
0.22106144 -0.009920925 -0.6221333 0.19224785 0.29422742 0.20833701 0.03368234 -0.14992848
-0.09699839 -0.06671032 -0.22244684 0.1551741 -2.1532203e-20 -0.023526682 -0.046673942 -0.1263743
-0.046726145 0.002321565 0.08080049 0.046516433 0.02704041 -0.031081045 0.022660337 0.037225194
-0.062183958 -0.013597763 -0.04737616 0.008442011 -0.07654884 0.04596329 -0.034661338 0.0026169978
-0.013362147 8.6195623e-13 -0.06822119 -0.024609149 -0.046198193 0.033975895 -0.021254733 0.030439759
-0.0050540874 -0.06390918 -0.00587743 -0.045219824 0.017301064 -0.050183497 -0.024641776 0.08650028
0.03744327 -0.012995932 0.033106137 -0.008635758 -0.059480708 -0.0010414257 -2.6142644e-11 0.05606166
-0.08592894 -0.12732285 -0.080967315 -0.037381694 -0.034874406 -0.04692136 0.03267647 0.077256314
-0.07363525 -0.05437531 -0.13877353 0.084358044 0.0027658213 0.059600435 0.017223785 -0.010811245
0.042401277 -0.13076212 -0.030085841 -1.1044348e-11 -0.5665557 0.8315895 0.3272253 -0.22088398
0.66532314 0.007377564 0.04065466 0.5036118 -0.33578068 -0.32955575 0.09716604 -0.24325036
0.51676834 -0.5392844 -0.38475293 0.29378942 -0.43321553 0.07998188 -0.00058229826 -0.62502956
4.2056698e-05 0.11301654 -0.0665127 0.019625252 -0.02637812 0.056783482 -0.14865306 -0.08739023
0.058779478 0.015748814 0.022750024 -0.033856526 -0.012911238 0.029853685 -0.114031665 -0.0662386
-0.0067110416 -0.06749195 0.0178417 -0.0016961112 -0.13550642 -1.2263097e-16 -0.14611603 0.060738266
-0.036902595 -0.08498621 0.06624888 -0.052762028 -0.02143813 -0.060612187 -0.020219019 -0.0036714752
-0.0020137518 -0.010285167 -0.05295177 0.05132696 -0.00076067424 -0.030485842 -0.09021087 -0.058074847
-0.041845743 -0.027419392 -8.6195623e-13 0.23020104 0.10794554 0.20049748 0.0501674 0.038118586
0.11154081 0.2017988 0.14734267 0.19505204 -0.09462086 0.019515693 0.07365655 0.055223677
-0.09946365 -0.056298733 -0.10181317 0.14404316 -0.038740974 -0.020219557 -0.09604145 1.29482945e-14
0.0071041845 -0.034801673 -0.013547098 -0.019915147 -0.02045471 -0.017596532 -0.0009228855 -0.021325292
-0.006035639 -0.014242786 0.014767754 -0.01032117 -0.012426973 0.02076811 0.027701687 -0.025230689
-0.0025678729 0.05800128 -0.029962165 -0.024377136 -9.682824e-06 -0.08201172 0.07222894 -0.039969265

rnn.weight_hh_l0 f4 [256, 64]
00000000: 1afa f6ba 2a76 ab3d e029 2dba e3e2 aebd
00000010: de94 c6bb e3c3 bbbb 081c 2dbc e4c2 17bd
00000020: c251 e8ba ef3b 9cb9 ae62 153c 82b4 56ba
00000030: 6c62 1a39 db5d 9a3a ba28 3bbc af0a 373b
00000040: 69bb 2e3c 17c5 703b a27e 3c3c 5a37 363e
00000050: 47ef cfbd 8892 9db9 7957 423c 3530 803c
00000060: d8d4 5139 0e72 493c 6d17 bc3a 529c 373c
00000070: b4a3 063b 9cdf 16be 1c4c 37bb 1834 8239
00000080: 2b10 53bd dbb3 c63a 08b3 e73a dfe0 30ba
00000090: 2c24 09be 7ee1 3d3c acb2 2dbb 3899 91bb
000000a0: 7f3c 39bb 547e 45bc d06c a03c 1869 c33b
000000b0: 7002 74bb 1bdf 8d3b 0062 4c3a 83e6 bd3d
000000c0: 18eb 87ba 2cbb 3cbc c229 e43a eb4f a0bd
000000d0: c254 083d 00d8 c4b6 bc99 323c e423 cbbb
000000e0: da5e 44bc 9afc 00ba 0ca4 ed3b fcac 5f3b
000000f0: e86f 13b8 2c29 e5ba 5cec 8fbb 7810 843c
00000100: 6ee3 d8bb c811 06bc 8562 0bbc fea1 20bf
00000110: 563c 153c c83d 983d af55 a2bd ccc9 4fbe
00000120: 91c3 86bd 8bf7 743c c940 173f 8404 8abc
00000130: 0df5 3dbd f21a 073d b8b2 c6bd c83e a73c
00000140: 1dfc c73d 7feb 0cbc a31d 5c3d 6af7 413f
00000150: 7d68 bdbe 161d 013c 4c28 b7bc a6bd 133d
00000160: 4322 363d 6ce1 983d 6300 32bd 444f 9c3c
00000170: 8fd4 443d 7d45 e2bf 86b9 443d 160c 443c
00000180: dde6 81bf 2208 7f3c ee40 843b e838 b6bb
00000190: 0943 d8bc 2bf0 083d 03d3 f8bc 9a69 1dbd
000001a0: da5a aaba 3042 3abd 6d0f 173e aa61 f93e
000001b0: 84c7 093f 638d e3ba 9b2e 873d cb74 203e
000001c0: e810 cabc 0f32 cc3c f46d 11ba 5ddd c1be
000001d0: 0da4 36be d056 3f3d ffea c7bf e3cf ef3b
000001e0: 1049 5bbe 61b5 ea3c f71c 8cbd b1a2 d73d
000001f0: 019e eabb 91ba 99bc 3c65 133d c91d c9be
00000200: b0a1 173b 6d46 3c3d 82ab 39bb c924 93bd
00000210: 0b9d 23bb 4e0d 9d3a 88d4 f5b9 216f bfbc
00000220: f6c2 af3b 9b12 95b9 bd3f 01bd e970 3dbb
00000230: 5727 7fbb df46 603b 5e4c d8bc 2200 c33b
00000240: c720 103c 882f 8239 8a17 9e3b c092 023e
00000250: 9748 14bd c46e 8abb e456 823b 0ad0 003d
00000260: fc4c e0ba e82c e53b 9886 693b ec6a 933a
00000270: 5745 003b 89bd d0bd afc8 8cba 138a a7bb
00000280: 3376 5dbc 420e 44bb 7a15 8cba 321d ca3b
00000290: bf8e 9fbd a3bb 993b 9a5c 8a3b 0347 ae3b
000002a0: 8c32 7dba 6433 4bbc 0d67 553d c83b 1e3d
000002b0: cf92 aabd 7fda fe3a f572 e33a c902 8b3d
000002c0: 5454 8339 2cc2 5abc d3dc 44bb 137a c5bc
000002d0: 3f24 273d ead4 ec39 d05e babb cff7 13bc
000002e0: 39e9 21bb 4285 60bb ac19 3c3c cd05 803c
000002f0: da07 173b 5e2a af3c 0643 f7ba 0917 533c
00000300: ff38 48bb d83e 9ebe 5675 27bc 54cb 63be
00000310: 72df 973c 0ae2 333d 3209 f6bc b626 6ebe
00000320: 1a39 11bc cf5c f03b 99cc 56be 00e3 e0bb
00000330: 465d 63bc d27b 8a3d 6d08 9ebd 04d4 3fbc
00000340: 5db2 b43d 69aa ed3b 544a 1abc 35e4 8c3d
00000350: a0ad 663e 0dee 58bc 429b 2ebd 6d5e fc3c
00000360: c29a 0fbc 4c3e f6bc 27fd 883c aa54 a2bc
00000370: f802 153d 27f0 4d3e f2dd 3cbb dbd1 81bc
00000380: 7b05 fd3c 235c 8dbd 24d6 ea3b d61e ddbc
00000390: 6354 243f c149 a23d a0ea aebc f27a 15bd
000003a0: 5819 81bd ae5f 54bc e0a1 e13c 1534 37bd
000003b0: ca99 043c e8d6 2bbd a8eb edbc 69f9 153d
000003c0: 7abe 49bd 4673 80bd eeb5 9bbc 15b7 b43a
000003d0: be91 97bd 58a0 46bc d404 503e 0d85 73bd
000003e0: b20a 7abc 2e54 4c3c 32ac b43a 7ad3 8bbd
000003f0: 67bf 3e3c 6fb2 25be b636 02bd 3747 50be
-0.0018842847 0.083721474 -0.0006605666 -0.08539369 -0.006060227 -0.0057301386 -0.010565765 -0.037051097
-0.0017724561 -0.00029799293 0.009117765 -0.000819035 0.0001472325 0.0011777239 -0.011423284 0.0027929952
0.010664799 0.0036738568 0.011504801 0.17794552 -0.101530604 -0.00030054548 0.011861675 0.015647987
0.00020011084 0.012295259 0.0014350243 0.011206703 0.0020544352 -0.14733738 -0.0027968949 0.00024834345
-0.05152909 0.0015159802 0.0017677257 -0.00067473756 -0.13392705 0.011589406 -0.0026504202 -0.004443314
-0.0028264818 -0.012054045 0.019583136 0.005963456 -0.0037232898 0.0043295748 0.00077965856 0.09272482
-0.0010369746 -0.011519235 0.0017407464 -0.07827743 0.033283956 -5.866401e-06 0.010900911 -0.006199347
-0.011985505 -0.0004920453 0.007252222 0.0034130206 -3.5151752e-05 -0.0017483584 -0.00439219 0.016121134
-0.0066189086 -0.00818295 -0.008507376 -0.6274718 0.0091086235 0.07433659 -0.07926499 -0.20291823
-0.0658027 0.014951597 0.5908323 -0.016847856 -0.046376277 0.03298468 -0.09702057 0.020415679
0.09764884 -0.0086010685 0.0537392 0.7576815 -0.3699378 0.00788047 -0.022358082 0.036069535
0.04446627 0.07464871 -0.0434574 0.019080766 0.048054274 -1.7677456 0.04802849 0.011965772
-1.0148579 0.015565904 0.0040360605 -0.005560983 -0.026399152 0.033432167 -0.030374056 -0.038430788
-0.0012997047 -0.045473278 0.14751978 0.48707324 0.5382006 -0.0017360862 0.06600686 0.15669553
-0.024666265 0.024926214 -0.00055476953 -0.378642 -0.17836018 0.04671365 -1.561859 0.007318483
-0.2141459 0.028650941 -0.06841462 0.10529078 -0.007159949 -0.01876572 0.035985216 -0.39280537
0.0023137145 0.0459656 -0.0028330986 -0.071847506 -0.002496543 0.0011982115 -0.0004688839 -0.02336842
0.0053638173 -0.00028433357 -0.031554926 -0.002890641 -0.003893336 0.003422193 -0.026403602 0.0059509436
0.008796877 0.00024830946 0.0048245834 0.12751293 -0.03620204 -0.00422463 0.0039776433 0.0314484
-0.0017112787 0.0069938786 0.0035633203 0.0011247075 0.001957258 -0.10192401 -0.0010740961 -0.0051128953
-0.01351695 -0.0029915725 -0.0010687553 0.006168031 -0.077908985 0.0046915575 0.0042224647 0.005318524
-0.0009658716 -0.012402389 0.05210023 0.03863123 -0.08328783 0.0019443779 0.0017352985 0.067876406
0.00025049096 -0.013351958 -0.0030038848 -0.024106061 0.04080605 0.0004517206 -0.005687572 -0.00903125
-0.0024705662 -0.0034259115 0.01148073 0.015627766 0.0023045451 0.021382507 -0.0018864579 0.01288391
-0.003055155 -0.3090732 -0.010220846 -0.22245532 0.018539164 0.04391674 -0.030033682 -0.23256955
-0.008863712 0.0073352824 -0.20976485 -0.006862998 -0.013877219 0.06761898 -0.07716451 -0.011708263
0.088230826 0.0072529805 -0.009417135 0.068794645 0.2252717 -0.0132403495 -0.042628534 0.030806744
-0.0087649245 -0.030059002 0.016722275 -0.019815762 0.036379784 0.20111142 -0.0028818813 -0.015847137
0.030886402 -0.06902339 0.007166641 -0.026992243 0.64191264 0.07924224 -0.021352112 -0.036494203
-0.06303662 -0.012962265 0.027543008 -0.044727404 0.008093307 -0.041952997 -0.029043034 0.03661481
-0.04925392 -0.06271987 -0.01900765 0.0013787473 -0.07400845 -0.01212319 0.20314342 -0.05945306
-0.015261339 0.012471242 0.0013784228 -0.06827445 0.011642314 -0.16181348 -0.031790458 -0.20339666

rnn.bias_ih_l0 f4 [256]
00000000: 2c23 a3be fb95 793e 99d6 90be 1bb6 2c3f
00000010: 5995 70be 4831 7abe 21f9 a4be 8204 7cbd
00000020: c07b adbe 4efd e4be 676a 873f 7d88 95be
00000030: 0e81 dabe 6f4c b7be 7f92 e9be 425c d3be
00000040: d978 bebe a42a 8fbe 42db c7be 0d34 fa3e
00000050: 7569 eb3e a43f 83be 22a9 b93e 90d4 60bf
00000060: 4a53 8dbe 7c87 143d f58d d4be 2d27 99be
00000070: b03d cebe e9a6 483f 79a9 dcbe 38b9 b8be
00000080: 93db 0a3f 364d 90be fbbf 9ebe dd98 8fbe
00000090: 02ff 4a3e a8ed b3be cefb 7bbe ed4f c7be
000000a0: 22c2 acbe 6075 aebe ab15 073f 53ad 663f
000000b0: 79eb 3e3f 4bce a8be 66a4 e0be f43a 5a3e
000000c0: 04e7 a3be 88cb 66be 616a 83be 04bb a5be
000000d0: 2f68 d13d 4d5b 96be d1bb a7bd b1ca 72be
000000e0: 3f85 c3be ab2f 8fbe fa85 94be 01a6 8bbe
000000f0: 599e 8fbe 8ac0 83be 12c1 8bbe 0ca2 343e
00000100: 0a5a 1cbe f8b9 8dbe 1520 f1bd ccad 613e
00000110: b3b8 a0bd 5ee1 89bd 0130 3ebe 3bdd da3e
00000120: 9b78 1fbe 763a 4abe b5a5 0abf ba97 5ebd
00000130: bc47 38be 05f8 fabd 2de1 9a3e 4a1f 3ebe
00000140: 17d7 22be 7f2a e5bd 18c3 43be 41fa 7f3e
00000150: 48e4 9c3e 5556 71bd 787c f4be b635 823e
00000160: 0878 e2bd 6cb0 68be f984 63be 1ff4 0abe
00000170: 2f27 33be d056 ff3d a691 66be 242c 39be
00000180: 584e af3d 7d07 bbbd 2fb1 73bd a6d7 bbbd
00000190: d052 e23d 8fdf 10be a7e1 dcbd 13e0 3ebe
000001a0: 1851 1fbe 59e1 84be 1a74 c2be 5465 43bf
000001b0: 5eb3 f3be bc2a e7bd 5227 36be 9ab0 a83e
000001c0: d3ba c5bd 1371 38bd b375 b5bd 09fd d9bc
000001d0: 2f4d a9be 788a fabd b84a fabe 1c31 c4bd
000001e0: 48c1 99bd d84c 9cbd bbb2 e5bd cf97 d4bd
000001f0: 074c e1bd b873 efbe 7288 eabd 00da 0b3c
00000200: 1d92 883c a96b 19bf ec9d ec3c 36a0 09bf
00000210: c481 e4bc 5998 673d 1cb8 4ebd dd34 bdbe
00000220: 567f 19bd 1ce7 2a3d 7992 ef3e 535f 15bc
00000230: d117 67bd bc74 d1bb 4f66 053f 3a14 8dba
00000240: c7f7 7bbd 8c80 5ebc c970 883d 5b76 2bbf
00000250: 8d41 283e ea25 0f3d 3511 fb3e 01dd 383f
00000260: 3a15 853d 7d62 8bbd 587b 873c acf0 563d
00000270: f89b 4b3d 371f e5bd 11b0 abbd 4d9f 4a3d
00000280: 920c 39be e2c3 0b3c 5928 68bc d4a4 8abc
00000290: b4f8 c13e 4c80 16bd 6097 b8bb 5b17 c2bc
000002a0: 0fb9 8e3d 7e52 653d aad8 b2be f6f9 bcbe
000002b0: 6525 603f 4e3f 14bd 227a e43c 741b e5be
000002c0: 8b78 af3c 4772 933d 968b 273d d2fc 9fbd
000002d0: 6033 0bbf 3446 a53c 1a64 d5bd af3c 163d
000002e0: 2cb7 81ba 3ca8 f23c c150 8b3d 95b4 c2bc
000002f0: 1a3f 03bc b0ca 003f db45 cf3c 03bb fcbd
00000300: da94 a5be a18a 723f bf32 92be 365a 823f
00000310: c6d4 75be f849 80be 831a a8be 1f1f 983c
00000320: 19ce adbe 04da ecbe dcc2 903f 82ed 99be
00000330: 4568 debe 1415 bcbe c7ca 453d c52e d6be
00000340: cb44 c1be 5273 90be 2d34 cabe 45f9 5a3f
00000350: f566 963e 6ff4 87be f655 1dbc 21a9 fd3e
00000360: 5e35 8fbe c844 d13d 15f0 dbbe a1b6 9dbe
00000370: c1e6 d1be e148 fc3e ac45 e0be f858 bbbe
00000380: fb2f 413d acc3 92be 3055 a3be 18c9 93be
00000390: af24 f73e 1230 babe 91fe 7fbe 3c25 ccbe
000003a0: 49d5 afbe ac6c b3be bbfd b83e 49fc 743f
000003b0: 7915 243e 9e31 aebe bf81 e3be 7bab 35be
000003c0: 0d5c a6be ce0f 6fbe 9a07 86be c4a0 8e3e
000003d0: 588e 143f bb39 97be ddaf 263e 568a 79be
000003e0: 9a54 cfbe 74ac 91be dff6 97be 098d 7abe
000003f0: 06e6 91be 14c4 38bb cafb 8dbe ee22 b23e
-0.31862772 0.2437362 -0.28288725 0.6746537 -0.23494472 -0.24432862 -0.3222132 -0.061527736
-0.33883476 -0.44724506 1.0579346 -0.29205695 -0.42676586 -0.35800502 -0.4561958 -0.41281325
-0.37201574 -0.2796222 -0.39034468 0.48867837 0.45978895 -0.2563449 0.3626185 -0.87824345
-0.27602607 0.03626202 -0.41514555 -0.299127 -0.4028144 0.78379685 -0.43098047 -0.3607881
0.54241294 -0.28183907 -0.31005844 -0.28046313 0.1982384 -0.35142255 -0.24607775 -0.38928166
-0.33741862 -0.34073925 0.5276744 0.9010822 0.7457805 -0.3296989 -0.43875426 0.21311551
-0.32012188 -0.22538579 -0.25667098 -0.32369244 0.102249496 -0.29366532 -0.0819012 -0.23710133
-0.38187596 -0.27966055 -0.29008466 -0.27275088 -0.28050497 -0.25732833 -0.27295738 0.17639941
-0.15268722 -0.27680945 -0.11773697 0.22038954 -0.078477286 -0.067324385 -0.18573 0.4274691
-0.15573351 -0.19748864 -0.541591 -0.054343916 -0.17996114 -0.12254337 0.3024992 -0.18566623
-0.15902363 -0.11189746 -0.19117391 0.24997808 0.30642915 -0.058920223 -0.47751212 0.25431603
-0.110580504 -0.2272355 -0.22218694 -0.13569687 -0.17495416 0.1246773 -0.22516498 -0.18083245
0.08559865 -0.09132288 -0.059495147 -0.09171991 0.110509515 -0.14147781 -0.10785227 -0.18640165
-0.15558279 -0.25953177 -0.37979203 -0.7632649 -0.47597784 -0.11287448 -0.17788437 0.32947236
-0.096547745 -0.04502971 -0.0886034 -0.026609914 -0.330667 -0.12233442 -0.4888513 -0.09579679
-0.075075686 -0.07631844 -0.11215731 -0.10380518 -0.11000829 -0.46767974 -0.11451806 0.008535862
0.016671235 -0.599299 0.028883897 -0.5376009 -0.027893908 0.056541774 -0.05046855 -0.36954394
-0.037474953 0.04172431 0.46791437 -0.009116965 -0.056419197 -0.0063920897 0.52109236 -0.0010763474
-0.061515596 -0.013580453 0.06662137 -0.6697747 0.16431256 0.034948267 0.49036565 0.72212225
0.06498189 -0.068058945 0.016538307 0.052475616 0.04970929 -0.111875944 -0.083831914 0.049468327
-0.18071201 0.008530589 -0.014169776 -0.0169243 0.37885058 -0.036743447 -0.0056332797 -0.023692777
0.06968891 0.055986874 -0.34930927 -0.36909455 0.8755706 -0.036193185 0.027890269 -0.44747508
0.021419784 0.07199531 0.040904604 -0.078118935 -0.5437527 0.020175077 -0.104194835 0.036678966
-0.0009896508 0.029621236 0.06802512 -0.023767749 -0.00801065 0.50309277 0.025301864 -0.12340357
-0.32340127 0.9474278 -0.2855434 1.018378 -0.24006948 -0.25056434 -0.32832727 0.018569527
-0.33946303 -0.46260083 1.1309466 -0.30064017 -0.43438926 -0.3673483 0.048289087 -0.41832557
-0.37747797 -0.28212982 -0.39492932 0.85536605 0.29375425 -0.26553676 -0.009603014 0.49543098
-0.27970403 0.10218197 -0.42956606 -0.30803397 -0.40996364 0.49274352 -0.43803155 -0.36591315
0.0471649 -0.2866491 -0.3190093 -0.2886436 0.48270175 -0.363648 -0.24999453 -0.39872158
-0.3434241 -0.35043848 0.3613108 0.95697457 0.16023816 -0.3402223 -0.44434926 -0.17741196
-0.32492104 -0.23345873 -0.26177675 0.2785703 0.580297 -0.29536232 0.16278024 -0.24369177
-0.40494233 -0.28451884 -0.29680535 -0.24467863 -0.28495806 -0.0028193044 -0.27731162 0.34792274

rnn.bias_hh_l0 f4 [256]
00000000: 2c23 a3be cdcf 863e 99d6 90be 1bb6 2c3f
00000010: 5995 70be 4831 7abe 21f9 a4be 165b 76bd
00000020: c07b adbe 4efd e4be 676a 873f 7d88 95be
00000030: 0e81 dabe 6f4c b7be 0793 e9be 425c d3be
00000040: d978 bebe a42a 8fbe 42db c7be 421f fa3e
00000050: 7569 eb3e a43f 83be 6da9 b93e f27b 60bf
00000060: 4a53 8dbe 7c87 143d f58d d4be 2d27 99be
00000070: b03d cebe e9a6 483f 79a9 dcbe 38b9 b8be
00000080: 93db 0a3f 364d 90be fbbf 9ebe dd98 8fbe
00000090: 2cff 4a3e a8ed b3be cefb 7bbe ed4f c7be
000000a0: 22c2 acbe 6075 aebe ab15 073f 53ad 663f
000000b0: 6feb 3e3f 4bce a8be 66a4 e0be f43a 5a3e
000000c0: 04e7 a3be 88cb 66be 616a 83be f38a a4be
000000d0: 0062 d23d 4d5b 96be 3965 a8bd b1ca 72be
000000e0: 3f85 c3be ab2f 8fbe fa85 94be 28a6 8bbe
000000f0: 599e 8fbe 38c0 83be 12c1 8bbe 1b9d 343e
00000100: 0a5a 1cbe 496a 8cbe 1520 f1bd 3ee4 613e
00000110: b3b8 a0bd 5ee1 89bd 0130 3ebe 4e46 dd3e
00000120: 9b78 1fbe 763a 4abe 24a5 0abf ba97 5ebd
00000130: bc47 38be 05f8 fabd 15e1 9a3e 4a1f 3ebe
00000140: 17d7 22be 7f2a e5bd 18c3 43be e4b7 6f3e
00000150: 77e4 9c3e 5556 71bd 907c f4be 8c9e 813e
00000160: 0878 e2bd 6cb0 68be f984 63be 1ff4 0abe
00000170: 2f27 33be 3975 ff3d a691 66be 242c 39be
00000180: 8c45 af3d 7d07 bbbd 2fb1 73bd a6d7 bbbd
00000190: bc53 e23d 8fdf 10be a7e1 dcbd 13e0 3ebe
000001a0: 1851 1fbe 59e1 84be 8275 c2be 8f65 43bf
000001b0: 5eb3 f3be bc2a e7bd 5227 36be 9ab0 a83e
000001c0: d3ba c5bd 1371 38bd b375 b5bd b6fd c3bc
000001d0: 6d4d a9be 788a fabd 414b fabe 1c31 c4bd
000001e0: 48c1 99bd d84c 9cbd bbb2 e5bd cf97 d4bd
000001f0: 074c e1bd b873 efbe 7288 eabd 9ba2 0b3c
00000200: 1d92 883c be24 18bf ec9d ec3c 38f0 0abf
00000210: c481 e4bc 5998 673d 1cb8 4ebd 12c0 c0be
00000220: 567f 19bd 1ce7 2a3d d307 ef3e 535f 15bc
00000230: d117 67bd bc74 d1bb 1a25 073f 3a14 8dba
00000240: c7f7 7bbd 8c80 5ebc c970 883d 8bf3 2dbf
00000250: eacd 2c3e ed25 0f3d ef59 073f a690 3a3f
00000260: 1616 853d 28b6 89bd 587b 873c a2f0 563d
00000270: f89b 4b3d fbe9 ddbd 11b0 abbd 4d9f 4a3d
00000280: 0f5e 3cbe e2c3 0b3c 5928 68bc d4a4 8abc
00000290: e755 c43e 4c80 16bd 9297 b8bb 5b17 c2bc
000002a0: 0fb9 8e3d 7e52 653d a77a b2be 85dc babe
000002b0: 0824 653f 4e3f 14bd 227a e43c 741b e5be
000002c0: 8b78 af3c 4772 933d 968b 273d 7ec4 86bd
000002d0: 995b 06bf 3446 a53c f16d 89bd af3c 163d
000002e0: 2cb7 81ba 3ca8 f23c c150 8b3d 284b cebc
000002f0: 1a3f 03bc c477 e33e db45 cf3c 099f f4bd
00000300: da94 a5be 2b91 723f bf32 92be 4e5a 823f
00000310: c6d4 75be f849 80be 831a a8be 8785 9c3c
00000320: 19ce adbe 04da ecbe 03a1 903f 82ed 99be
00000330: 4568 debe 1415 bcbe f9c4 453d c52e d6be
00000340: cb44 c1be 5273 90be 2d34 cabe 301a 5b3f
00000350: fd23 963e 6ff4 87be 4f35 1cbc 0a92 fd3e
00000360: 5e35 8fbe c644 d13d 15f0 dbbe a1b6 9dbe
00000370: c1e6 d1be 96a9 fc3e ac45 e0be f858 bbbe
00000380: a742 483d acc3 92be 3055 a3be 18c9 93be
00000390: be25 f73e 1230 babe 91fe 7fbe 3c25 ccbe
000003a0: 49d5 afbe ac6c b3be 9751 ba3e 53fc 743f
000003b0: 7045 243e 9e31 aebe bf81 e3be 2d9f 35be
000003c0: 0d5c a6be ce0f 6fbe 9a07 86be 479c 8e3e
000003d0: 5c8e 143f bb39 97be e8fe 273e 568a 79be
000003e0: 9a54 cfbe 74ac 91be dff6 97be 068d 7abe
000003f0: 06e6 91be 86d7 38bb cafb 8dbe e421 b23e
-0.31862772 0.26330414 -0.28288725 0.6746537 -0.23494472 -0.24432862 -0.3222132 -0.06014546
-0.33883476 -0.44724506 1.0579346 -0.29205695 -0.42676586 -0.35800502 -0.45619985 -0.41281325
-0.37201574 -0.2796222 -0.39034468 0.48851973 0.45978895 -0.2563449 0.36262074 -0.87689126
-0.27602607 0.03626202 -0.41514555 -0.299127 -0.4028144 0.78379685 -0.43098047 -0.3607881
0.54241294 -0.28183907 -0.31005844 -0.28046313 0.19823903 -0.35142255 -0.24607775 -0.38928166
-0.33741862 -0.34073925 0.5276744 0.9010822 0.74577993 -0.3296989 -0.43875426 0.21311551
-0.32012188 -0.22538579 -0.25667098 -0.3213726 0.10272598 -0.29366532 -0.08222432 -0.23710133
-0.38187596 -0.27966055 -0.29008466 -0.27275205 -0.28050497 -0.2573259 -0.27295738 0.17638056
-0.15268722 -0.2742484 -0.11773697 0.22059724 -0.078477286 -0.067324385 -0.18573 0.432177
-0.15573351 -0.19748864 -0.54158235 -0.054343916 -0.17996114 -0.12254337 0.3024985 -0.18566623
-0.15902363 -0.11189746 -0.19117391 0.23409992 0.30643055 -0.058920223 -0.47751284 0.25316274
-0.110580504 -0.2272355 -0.22218694 -0.13569687 -0.17495416 0.1247353 -0.22516498 -0.18083245
0.08558187 -0.09132288 -0.059495147 -0.09171991 0.11051127 -0.14147781 -0.10785227 -0.18640165
-0.15558279 -0.25953177 -0.37980276 -0.7632684 -0.47597784 -0.11287448 -0.17788437 0.32947236
-0.096547745 -0.04502971 -0.0886034 -0.02392469 -0.33066884 -0.12233442 -0.4888554 -0.09579679
-0.075075686 -0.07631844 -0.11215731 -0.10380518 -0.11000829 -0.46767974 -0.11451806 0.008522655
0.016671235 -0.59431064 0.028883897 -0.54272795 -0.027893908 0.056541774 -0.05046855 -0.37646538
-0.037474953 0.04172431 0.46685657 -0.009116965 -0.056419197 -0.0063920897 0.5279099 -0.0010763474
-0.061515596 -0.013580453 0.06662137 -0.6794974 0.16875425 0.03494828 0.528716 0.72876966
0.06498353 -0.06724197 0.016538307 0.05247558 0.04970929 -0.10835644 -0.083831914 0.049468327
-0.18395256 0.008530589 -0.014169776 -0.0169243 0.38346788 -0.036743447 -0.005633303 -0.023692777
0.06968891 0.055986874 -0.348592 -0.36496368 0.89508104 -0.036193185 0.027890269 -0.44747508
0.021419784 0.07199531 0.040904604 -0.06580447 -0.52483517 0.020175077 -0.06710423 0.036678966
-0.0009896508 0.029621236 0.06802512 -0.025182322 -0.00801065 0.4442731 0.025301864 -0.11944396
-0.32340127 0.9475276 -0.2855434 1.0183809 -0.24006948 -0.25056434 -0.32832727 0.01910664
-0.33946303 -0.46260083 1.1299137 -0.30064017 -0.43438926 -0.3673483 0.04828355 -0.41832557
-0.37747797 -0.28212982 -0.39492932 0.85586834 0.29324332 -0.26553676 -0.009534194 0.4952548
-0.27970403 0.102181956 -0.42956606 -0.30803397 -0.40996364 0.49348134 -0.43803155 -0.36591315
0.04889169 -0.2866491 -0.3190093 -0.2886436 0.48270983 -0.363648 -0.24999453 -0.39872158
-0.3434241 -0.35043848 0.36390373 0.95697516 0.16042113 -0.3402223 -0.44434926 -0.17736502
-0.32492104 -0.23345873 -0.26177675 0.27853605 0.58029723 -0.29536232 0.16405833 -0.24369177
-0.40494233 -0.28451884 -0.29680535 -0.24467859 -0.28495806 -0.0028204634 -0.27731162 0.34791481

ffn.dense1.weight f4 [32, 64]
00000000: 478c 0200 effb 0200 4fa8 0600 d979 04b2
00000010: 5604 0200 7720 0000 e645 0400 0c79 4a8c
00000020: 5c3c 0780 df6e 0680 b374 67a3 34cd 0000
00000030: 83ba 0500 3338 0500 2e50 0000 99a2 0200
00000040: 2047 0400 e712 0080 eed5 0500 0b68 b234
00000050: 0aff 8117 4d45 0580 d41f 00ad 72b4 e6a6
00000060: 5ec3 0100 c2ff 2200 1f0b 0200 7a9b 0480
00000070: bb87 0180 9adb 0114 57bf 0300 5cd8 0280
00000080: 7823 0f18 c9fd 0380 20e3 0600 ee92 0080
00000090: c6f6 cba7 a789 0580 70b7 0100 efe8 0000
000000a0: 81d9 0200 5aa3 0080 f0fd 5522 6580 b821
000000b0: 099e cfa5 dc43 0100 3358 0000 e9bf 8432
000000c0: 01be 0780 ad13 0800 b23c 0100 a343 a5a2
000000d0: 8edd 6f28 c323 0580 81d7 0580 fe32 0800
000000e0: 99cc 0780 3a68 0100 b492 0080 78b1 0180
000000f0: b7a0 0500 a7c0 0280 1c5b 0700 39ae f68c
00000100: d21d 278e 5dc1 22ae 5655 458e cbca 67bb
00000110: 6dd2 d28e 4822 ed8c c479 ee0e 7f76 33b5
00000120: 8c53 180f 7ca9 ad0d 2f83 88b8 69af bd8e
00000130: 58de 1395 d290 850e 2546 0eb2 a0fc 328e
00000140: bca6 150f 083d 388f 66a8 d38e 8965 663b
00000150: 6bfb 0131 866d 998d 26f9 90b3 32fa 21b2
00000160: edb3 728f 744c d38e e4f5 758d 8c80 258e
00000170: fbc8 488e 08d3 90af 2ce2 8d0e 0832 470f
00000180: 6805 ea32 0cb3 cc0e 4c94 148d 2fb3 f60e
00000190: e5bf 00b7 1ef8 3e0e 89a5 2d8e ab46 920e
000001a0: 1656 010e 4c91 dc8e d260 c534 cfe9 1036
000001b0: b148 97b1 72f1 170e d8d6 ee0e 995c bf3a
000001c0: 7330 a70e aedf 730e 5ab4 ce0e c6e0 20ba
000001d0: 4032 1838 7d1c 2291 09c9 c9b0 00da aa8a
000001e0: f95a f40e 720a 070e 0226 560e 67c9 960c
000001f0: 2003 290c 29f2 3910 22b0 3a8e 9a72 2f35
00000200: 7552 0380 63cd 2b14 2c2d 0080 9824 b8b1
00000210: 5607 0080 c25b 0580 8b51 0200 852b e61e
00000220: bff9 0100 179d 0400 ba06 3fa1 6a23 0580
00000230: dd8b 0180 ab3c 0180 b5ff 0800 2c71 0200
00000240: ba97 0780 d554 0180 c867 0180 2d06 a42f
00000250: b63e 1585 bafe 0100 bf04 0580 817e e22f
00000260: 44a0 0280 386f 0280 b6e7 0400 afad 0100
00000270: 8701 0080 eba2 3304 0906 0200 d0cb 0400
00000280: 05a4 0000 48c0 0500 f8fb 0080 92ba 0180
00000290: fa85 0e9b 1023 0480 fa41 0200 f2a8 0480
000002a0: 9419 0280 7949 0400 7875 8a87 93e1 3f8d
000002b0: 2288 39a1 425d 0380 5487 0480 0d10 732b
000002c0: 3d42 0100 75b1 0480 1f6f 0380 3fed 99a0
000002d0: b4dc b50f cdc6 0200 040c 0280 672c 0200
000002e0: c38f 0280 b072 0600 e84e 0000 26e5 0300
000002f0: 8694 0600 b247 8205 c3c5 0380 63f0 150b
00000300: ca79 083a 88b0 a3bd c9c7 02b3 69c6 85be
00000310: 45c3 9a3a 7e11 58bc 88d6 703d e35f 04be
00000320: 5940 57bb 6b61 863d 411e 70be d8b4 143c
00000330: 6d8e 2714 f786 04a7 b275 46be 0dc5 2cb3
00000340: 96ab 1dbd 20f1 bbbb 30cd 2dbc ae61 833e
00000350: ef20 533e 7431 54bd a507 72be abcb 403e
00000360: 0ecc b5bc 857d d93d 8f9f 49bd 8e8b 1695
00000370: ad6f 58bd f6e1 50be 73d4 aab9 aadd 49bd
00000380: f614 383e e8e0 0e3c 6509 afbc 19f2 1caf
00000390: aa02 92be d9cc 2a3b d2a8 b9bb 30a4 983b
000003a0: f6be a034 38af 913c c02f 533e 2e6b 583e
000003b0: 5bbe 7abe 25f3 d8b7 e73f f03b 1c73 813e
000003c0: 04b8 83bc 57a9 5e3b 34ad 013d c2bf 58be
000003d0: 41c9 593e 0f66 06b8 9f61 f63d 6585 8bb8
000003e0: 64b9 153d 3e7f 232a 827b d1bd 9a8a 87bd
000003f0: 3afa 861f 76b4 04bd c021 a13a 594e 213e
2.33993e-40 2.74048e-40 6.11391e-40 -7.711116e-09 1.85226e-40 1.1646e-41 3.92417e-40 -1.559794e-31
-6.64501e-40 -5.90786e-40 -1.2547247e-17 7.3613e-41 5.26085e-40 4.79338e-40 2.8763e-41 2.42e-40
3.92857e-40 -6.781e-42 5.35921e-40 3.3230785e-07 8.400811e-25 -4.84038e-40 -7.283025e-12 -1.6008366e-15
1.6192e-40 3.214155e-39 1.8766e-40 -4.23116e-40 -1.40526e-40 6.5561444e-27 3.44146e-40 -2.61286e-40
1.8500224e-24 -3.66547e-40 6.3249e-40 -5.2708e-41 -5.661137e-15 -5.08558e-40 1.5764e-40 8.3561e-41
2.61697e-40 -5.86e-41 2.9001316e-18 1.2502311e-18 -3.6015865e-16 1.16179e-40 3.164e-41 1.5454093e-08
-7.11009e-40 7.41742e-40 1.13609e-40 -4.4794953e-18 1.3315207e-14 -4.72006e-40 -5.36486e-40 7.52977e-40
-7.16244e-40 1.29225e-40 -5.2627e-41 -1.55499e-40 5.16831e-40 -2.52782e-40 6.75532e-40 -3.8007158e-31
-2.0598697e-30 -3.7006277e-11 -2.4323212e-30 -0.0035368677 -5.197163e-30 -3.6536264e-31 5.8788786e-30 -6.685513e-07
7.510269e-30 1.070275e-30 -6.50942e-05 -4.676101e-30 -2.9861812e-26 3.292649e-30 -8.281437e-09 -2.2061828e-30
7.378379e-30 -9.0836546e-30 -5.2177678e-30 0.0035155735 1.8914885e-09 -9.45572e-31 -6.7508424e-08 -9.428321e-09
-1.1966174e-29 -5.2089138e-30 -7.5792434e-31 -2.0399713e-30 -2.4748672e-30 -2.6343394e-10 3.497698e-30 9.821093e-30
2.7243644e-08 5.04623e-30 -4.5784527e-31 6.081623e-30 -7.6740735e-06 2.3538772e-30 -2.1403599e-30 3.605983e-30
1.5941926e-30 -5.4374103e-30 3.6764555e-07 2.1593767e-06 -4.4029425e-09 1.8728439e-30 5.8878417e-30 0.001459974
4.1215333e-30 3.005976e-30 5.0956593e-30 -0.00061370095 3.6286423e-05 -1.2788325e-28 -1.4681812e-09 -1.6452407e-32
6.0238248e-30 1.6645064e-30 2.6395837e-30 2.3232374e-31 1.3020227e-31 3.667137e-29 -2.3011075e-30 6.535935e-07
-3.05086e-40 8.673799e-27 -1.6205e-41 -5.359265e-09 -2.632e-42 -4.92094e-40 2.12923e-40 2.4370196e-20
1.81428e-40 4.23695e-40 -6.472222e-19 -4.71882e-40 -1.42009e-40 -1.13599e-40 8.26414e-40 2.2427e-40
-6.97278e-40 -1.22267e-40 -1.29065e-40 2.9835814e-10 -7.0174645e-36 1.83214e-40 -4.6088e-40 4.1199047e-10
-2.41163e-40 -2.23569e-40 4.50464e-40 1.54141e-40 -5.48e-43 2.1116157e-36 1.85836e-40 4.40456e-40
5.8839e-41 5.28155e-40 -9.039e-41 -1.58764e-40 -1.1789255e-22 -3.7992e-40 2.07339e-40 -4.27948e-40
-1.92847e-40 3.93699e-40 -2.0832974e-34 -5.9127944e-31 -6.286061e-19 -3.08961e-40 -4.15889e-40 8.635322e-13
1.15597e-40 -4.31002e-40 -3.15369e-40 -2.6076204e-19 1.793299e-29 2.54987e-40 -1.87981e-40 1.996e-40
-2.35243e-40 5.92155e-40 2.8306e-41 3.5771e-40 6.04293e-40 1.2251478e-35 -3.4645e-40 2.8877203e-32
0.0005206136 -0.07992655 -3.0449687e-08 -0.26127937 0.0011807462 -0.013187764 0.058798343 -0.12927203
-0.003284475 0.0656155 -0.23449041 0.00907632 8.459434e-27 -1.8391844e-15 -0.19380835 -4.0226087e-08
-0.038493715 -0.0057355314 -0.010608003 0.2566046 0.20618032 -0.051804975 -0.23635729 0.18827693
-0.022192027 0.10619644 -0.049224433 -3.0402348e-26 -0.052840877 -0.20398697 -0.00032583214 -0.04928366
0.17976746 0.008720614 -0.021366784 -1.4274128e-10 -0.28517658 0.002606204 -0.005665877 0.0046582446
2.9941265e-07 0.017783746 0.20623684 0.21134636 -0.24486677 -2.586243e-05 0.0073318365 0.25283134
-0.016078956 0.0033975446 0.03165932 -0.211669 0.21268179 -3.204314e-05 0.120303385 -6.652883e-05
0.036553755 1.4521454e-13 -0.10228635 -0.06618233 5.716517e-20 -0.032398663 0.0012293383 0.15752544

ffn.dense1.bias f4 [32]
00000000: 755a 8114 7464 0eb2 c220 2200 3007 47be
00000010: de1d 47be ce30 1dbb 75b0 aab8 6557 0780
00000020: 59fc 15bb cbb2 c4b7 6c10 0480 8ca7 a3b2
00000030: f528 0580 8c85 deb4 d6e0 f3b9 7bb5 0e32
00000040: e555 0eb4 b7d5 64b3 793c 11a0 554e 7cb0
00000050: bfcd 0480 1aad 0180 6436 48b9 2219 8cb9
00000060: 5af3 0180 80d0 02b4 17ce 01a6 5639 3204
00000070: 323f bf0c 3834 2681 3b34 ebb3 477a 23aa
1.306135e-26 -8.288328e-09 3.134158e-39 -0.19436336 -0.19444987 -0.0023985389 -8.1390994e-05 -6.742e-40
-0.0022886007 -2.3448278e-05 -3.73233e-40 -1.9051889e-08 -4.7387e-40 -4.144789e-07 -0.00046516088 8.306752e-09
-1.3256029e-07 -5.327976e-08 -1.2301986e-19 -9.178838e-10 -4.4115e-40 -1.53933e-40 -0.00019093748 -0.00026721606
-1.79134e-40 -1.2183045e-07 -4.503517e-16 2.0950127e-36 2.9466244e-31 -3.052685e-38 -1.0952541e-07 -1.4519732e-13

ffn.dense2.weight f4 [64, 32]
00000000: 9563 0100 a387 2492 7d12 0800 2893 0d95
00000010: 12b7 c7bb 09fd a1aa a644 1009 f5bc 1d00
00000020: 5375 428f 9137 0480 c535 0100 d8f4 0600
00000030: a5e9 0080 0bc1 0380 4a60 2fa1 54bf 6b2f
00000040: 08ae 0300 907c 9f1e fd83 0280 f341 4a97
00000050: 6de2 0000 5bde 0080 b041 41b4 6d87 2700
00000060: 9c09 0280 cd6d f232 024b 0380 0f75 0a80
00000070: 62b4 0180 b067 0400 fae5 06b2 7250 0300
00000080: 627a 7fb9 3a2a f83c babb 0639 6154 43bd
00000090: f0de 633e 420d d62b 33a7 9b3d 46de 0600
000000a0: 468f f5bd 15c9 763a d3f5 1698 e954 bf3b
000000b0: e7e8 cebb 1ead 80bb e86c 133e 298b 2730
000000c0: 8fc9 8c3b 426b 663c 91a6 913a 61a0 462d
000000d0: 9b42 b8b8 6642 d5b9 1b42 dd0e 00e9 89bd
000000e0: 4df1 aab9 d706 743e c371 1cba e33c 1db3
000000f0: 86dc 783b b30b 9fb8 0d47 afbb fa5e 4038
00000100: a50f 0400 69d7 a80d a586 0180 538f 5e20
00000110: 0e9e e7ba ac8c 4a2b 9bc7 d9a1 b5ed 0700
00000120: eaf3 2e8e d29b 0500 1ec2 0100 4572 0500
00000130: bcdd 0680 b63b 0300 c0c5 71a0 9e1c 3aaf
00000140: c871 0000 82f6 e31e 31a6 0200 fca9 7714
00000150: 19e9 0180 38ac 0000 cfcd 1380 cb6b 0180
00000160: 4bec 0000 a0db 4bb1 b888 0580 90f0 0f00
00000170: 0553 0380 3c3f 0080 98f7 a6b1 49e1 0200
00000180: 9da7 c09c 196c 713b 4b6c 63a8 634f 9cb8
00000190: 1623 3abc 61c8 2dac e7ed d0b9 1f80 0380
000001a0: 20b3 83b5 4b9f 0080 ca0c 0180 1e06 9eab
000001b0: cbc8 ab8b 425c 53b3 f2de a4bb 9b6f e5af
000001c0: d9a0 79a8 2ad3 1c33 fa46 0100 3437 4c97
000001d0: 70e6 0380 a0b9 010e 75cf 1380 e1d1 dd38
000001e0: caaf 0200 fe54 dc33 a0a8 4a15 d0f1 7a87
000001f0: 215b 0700 1c53 0580 53d6 d6af d5af 0600
00000200: 37b7 0600 b362 830d efc0 0280 d815 c894
00000210: 7810 e5b9 6048 ba2a fef0 f035 1f26 1300
00000220: e472 1c8f e510 0800 c48f 0780 2d3a 0500
00000230: 5ebf 0300 21eb 0480 4099 a2a0 3fac 822e
00000240: a52b 0080 efe9 7c1d d566 0180 8601 1714
00000250: 73e0 0500 2272 0380 db14 0080 8bca 0300
00000260: db35 0080 c6b3 0ab3 3881 0180 18fa 2c80
00000270: 5b99 0200 26c5 0580 ee6c 9c30 369a 0500
00000280: 5556 0080 4bf5 0d8f f464 0000 a064 0393
00000290: ed93 74bc 2a72 c4ab dc32 929e ca4c 0680
000002a0: c494 078d 8fb0 0280 4edf 0100 c877 0080
000002b0: 7cf5 0100 5507 0280 03cb 68a1 849e d2ae
000002c0: e66e 0080 9caa 8d9f 50b3 0500 44cc c716
000002d0: b275 0300 d97e 0180 b99e 1800 6eae d700
000002e0: 1266 0300 e091 2b32 bdc4 0280 eee9 0800
000002f0: 8b2e 0680 813f 0280 976b 7831 c4a5 0480
00000300: 7e3f 0300 f0ce b00d 922e ef0c 6310 04a2
00000310: 7f21 08bc 86c0 e72a 3090 c304 239c 0580
00000320: 3c2a 4399 4c59 0600 7cb8 0280 f179 0100
00000330: 195e 0300 694b 0500 cd14 7ca0 0cd8 0a2f
00000340: 3c8f 0080 56e4 d81e 9fbe 0200 2c74 8314
00000350: 3972 0680 00ab 0100 bc1e 0300 c999 2600
00000360: 7ed7 0580 aca2 f7b0 c367 0180 cef3 0300
00000370: e1b7 0200 d725 0300 3a51 c5af d80c 0200
00000380: afe5 0cab 8055 95b8 20af 803a e87b b22c
00000390: 5a93 3dbd c228 842a 5198 9fba 1b69 0400
000003a0: d154 8d11 d645 0524 bc02 d784 abf3 1933
000003b0: 4593 821b 7ee0 df33 211b 9c3d 9464 d9af
000003c0: 3b89 b232 1fa5 b13a 866b 1100 50cb b395
000003d0: 596f b599 d0ac 50ab f791 0000 291f 313c
000003e0: 7670 0da4 4aea 973b cc28 ffae 6702 3681
000003f0: cbaa c783 5d25 4615 cc90 1432 12ff 909e
1.27559e-40 -5.191646e-28 7.41316e-40 -2.859081e-26 -0.0060948217 -2.8774924e-13 1.7365648e-33 2.731014e-39
-9.587534e-30 -3.87275e-40 1.11124e-40 6.38846e-40 -8.3816e-41 -3.44757e-40 -5.9419744e-19 2.1441099e-10
3.37937e-40 1.6886298e-20 -2.3102e-40 -6.535296e-25 8.1226e-41 -7.9766e-41 -1.7998423e-07 3.630166e-39
-1.87118e-40 2.822244e-08 -3.02414e-40 -9.60348e-40 -1.56545e-40 4.04538e-40 -7.852117e-09 3.04365e-40
-0.00024364286 0.030293573 0.0001284917 -0.047687892 0.22253013 1.5209294e-12 0.0760025 6.3075e-40
-0.11990218 0.0009414119 -1.9511155e-24 0.0058389795 -0.006314385 -0.003926887 0.14397013 6.0952005e-10
0.0042964886 0.014063658 0.0011112263 1.1290608e-11 -8.78621e-05 -0.00040675997 5.4544364e-30 -0.06733894
-0.0003260471 0.23830734 -0.00059678796 -3.6609787e-08 0.003797324 -7.58389e-05 -0.005349046 4.586482e-05
3.72954e-40 1.04056575e-30 -1.40137e-40 1.8851553e-19 -0.0017671005 7.196004e-13 -1.4757327e-18 7.28122e-40
-2.1564596e-30 5.15075e-40 1.61472e-40 5.0017e-40 -6.30556e-40 2.96927e-40 -2.0478924e-19 -1.6926768e-10
4.0817e-41 2.4136513e-20 2.43289e-40 1.2503837e-26 -1.75455e-40 6.178e-41 -1.818705e-39 -1.30504e-40
8.4766e-41 -2.966523e-09 -5.08223e-40 1.46383e-39 -3.05288e-40 -2.2684e-41 -4.859384e-09 2.64488e-40
-1.2748821e-21 0.0036838113 -1.2624514e-14 -7.4534466e-05 -0.011360904 -2.4696011e-12 -0.00039850103 -3.21468e-40
-9.812393e-07 -5.7144e-41 -9.6423e-41 -1.1228273e-12 -6.6168924e-32 -4.9211174e-08 -0.00503146 -4.1734158e-10
-1.3857155e-14 3.6513633e-08 1.17297e-40 -6.598563e-25 -3.58172e-40 1.5989853e-30 -1.819296e-39 0.00010577194
2.46732e-40 1.0260008e-07 4.0926597e-26 -1.8878972e-34 6.7554e-40 -4.88992e-40 -3.907866e-10 6.1409e-40
6.16738e-40 8.097259e-31 -2.52883e-40 -2.0203455e-26 -0.00043690554 3.3090457e-13 1.7951531e-06 1.75855e-39
-7.713521e-30 7.40745e-40 -6.94422e-40 4.80047e-40 3.44156e-40 -4.5169e-40 -2.754528e-19 5.9423126e-11
-1.5657e-41 3.3472863e-21 -1.28725e-40 7.623852e-27 5.39695e-40 -3.1645e-40 -7.482e-42 3.48165e-40
-1.932e-41 -3.2294132e-08 -1.3819e-40 -4.130479e-39 2.38685e-40 -5.29901e-40 1.1381454e-09 5.14498e-40
-3.097e-41 -6.9990784e-30 3.6215e-41 -1.6584137e-27 -0.014927846 -1.3958325e-12 -1.5479386e-20 -5.7856e-40
-4.1779157e-31 -2.47008e-40 1.71942e-40 -4.297e-41 1.79899e-40 -1.86301e-40 -7.887334e-19 -9.5778524e-11
-3.9783e-41 -5.999807e-20 5.23503e-40 3.2279094e-25 3.17728e-40 -1.3734e-40 2.260991e-39 1.9807205e-38
3.12122e-40 9.986678e-09 -2.54247e-40 8.18602e-40 -5.6771e-40 -2.06452e-40 3.6149908e-09 -4.26807e-40
2.98283e-40 1.0896656e-30 3.685181e-31 -1.789801e-18 -0.008308767 4.1167433e-13 4.5976695e-36 -5.15189e-40
-1.0089793e-23 5.83047e-40 -2.49852e-40 1.3558e-40 3.09262e-40 4.8623e-40 -2.1352113e-19 1.2627782e-10
-5.1383e-41 2.2964327e-20 2.52053e-40 1.3273441e-26 -5.91988e-40 1.53179e-40 2.86532e-40 3.544917e-39
-5.36482e-40 -1.8017849e-09 -1.29058e-40 3.62967e-40 2.49634e-40 2.89081e-40 -3.5891806e-10 1.88278e-40
-5.005674e-13 -7.120799e-05 0.0009817816 5.0728206e-12 -0.046283104 2.3476192e-13 -0.0012176131 4.05047e-40
2.229815e-28 2.889893e-17 -5.054877e-36 3.5844703e-08 2.1601867e-22 1.04250816e-07 0.07622362 -3.9543535e-10
2.0784332e-08 0.0013553238 1.599776e-39 -7.2618295e-26 -1.8759934e-23 -7.413627e-13 5.2362e-41 0.010810652
-3.066976e-17 0.0046360837 -1.16033044e-10 -3.3429844e-38 -1.1735381e-36 4.0015256e-26 8.647657e-09 -1.5352088e-20

ffn.dense2.bias f4 [64]
00000000: fc89 603d 9875 9abb f183 96bc 6d25 0dbc
00000010: 596f 23be 0827 a43c 7868 67bd b14b c9bc
00000020: 7fe2 a3bc 15ac c03c 82ad 4a3b eed3 c2bd
00000030: ad21 efbb 2a01 233e d6f0 b33d 29fa 22be
00000040: bcc6 ee3c 326c 913c 6732 55bd 62a6 c63c
00000050: 4723 d53c 452d 973b 042b 5ebd d133 05bd
00000060: 3fcf 083d 8993 b53d ca0d 053c 154b 49bd
00000070: 8061 d7bd 2204 3abd b260 953d 7d89 b33d
00000080: d907 debc 0b0d c03c 86a8 033d 4c08 03bc
00000090: 6f7c 023d 72e1 193d 4927 c13c b9c8 3e3d
000000a0: 2274 cc3d 7f3f abbd ba12 b43d 9ce6 bc3c
000000b0: 6902 19bd af34 b8bd 1bcf 223d 7d4e 61bd
000000c0: 0d00 193d ffdb 3f3d 95ee a03d 71df 7c3c
000000d0: 34f8 323d 9dbf 1ebd 0731 883c a414 fbbb
000000e0: ef1f 9cbc d9be 5abd 43ad bdb9 0503 f33b
000000f0: 96a6 52bd 0df6 623d 175e 4e3d 80a8 623c
0.054819092 -0.0047137253 -0.018373461 -0.00861488 -0.15960445 0.020038143 -0.056496114 -0.024572225
-0.020005463 0.023519555 0.0030926173 -0.09513079 -0.0072977156 0.15918413 0.0878617 -0.15915741
0.029147498 0.017751787 -0.05205002 0.02424926 0.026017798 0.004613551 -0.05424024 -0.03252012
0.03340077 0.08866031 0.008120963 -0.04914387 -0.105166435 -0.045414098 0.07293834 0.08766458
-0.027103351 0.02344372 0.03214314 -0.007997584 0.03185695 0.037568517 0.023578303 0.046578143
0.09983088 -0.0836172 0.08792634 0.023059182 -0.037355814 -0.089944236 0.039748292 -0.055006493
0.037353564 0.046840664 0.07858006 0.015434132 0.043693736 -0.038756955 0.01662494 -0.0076623727
-0.019058196 -0.053404663 -0.0003617798 0.0074161314 -0.0514284 0.055410434 0.0503827 0.013834119

linear1.weight f4 [32, 64]
00000000: b0e5 1e3c 43a8 5e3d 1734 42bd bdab 283f
00000010: cadb d13d 7fb2 ef3c 67f3 d83d 5fd7 9bbf
00000020: e71f 473b 81aa 3ebd 23bf 763e 33b3 dfbd
00000030: 39ea da3c 0885 47be 01a9 87bd 2a68 66be
00000040: ab0e 2ebd bc1e 6d3b 9022 09bc 7130 ffbe
00000050: ee51 973e 7059 113d d0bb e13d 3cc3 66bd
00000060: 5588 bd3c be9e 543d d650 32bd e0a9 46bc
00000070: daf7 20be 88ab 66be 6013 7b3e 2c4d df3b
00000080: 3439 adbe 5d25 c23d b342 473d 21e2 dabb
00000090: a236 f8bd 38e6 31be 8b83 cd3c d679 81bd
000000a0: 918a 85bd 10f4 253e 4a49 283c 267f 91be
000000b0: 218e 7fbe 438b 26bd 509f 073d dc57 ffbd
000000c0: 28d2 cabd d662 763a fb63 93bb 6ba1 00bd
000000d0: e55f 41bf e277 a7bd 944e de3d 1c19 b93b
000000e0: c2dc 783c fcd1 1f3d 09a7 96bc 6c54 b0be
000000f0: a7b8 abbd 6009 203d f0b0 4b3d a2ce 5dbe
00000100: 0cc3 0380 fbd0 6a91 9484 0080 a31e 0380
00000110: 00d0 0000 e416 0400 3bb4 0600 1f4f 0080
00000120: b398 0280 9bbe 0680 179a 0180 44e6 0400
00000130: d3e3 0180 7974 0400 6129 0000 811f 0200
00000140: 1153 0180 4dc9 0200 ee4e 0880 6f51 0080
00000150: 102f 0600 c59b 0200 b66f 0300 f4cd 0000
00000160: 21dd 0400 80c9 0480 d75e 0580 0520 0580
00000170: 1787 0180 d161 0000 ad8f 0380 9e00 0680
00000180: 0c24 0380 e4c1 0100 38d5 0280 b41a 0300
00000190: cba2 0480 9907 0200 1424 0100 b0a6 0200
000001a0: 851b 0580 f0a1 0680 0174 0600 c92f 0000
000001b0: 2baf 0180 d9cf 0780 6d1a 0500 2923 0880
000001c0: 628b 0780 1b3f 0080 3568 0500 3b89 4280
000001d0: 7f62 0500 2279 0380 8c13 0200 eb04 0600
000001e0: 79a3 0100 cc8f 0300 6022 0700 dfc8 0780
000001f0: 8287 0180 78e3 0100 d29c 0500 f39b 0580
00000200: 4741 f73b 7328 a63e f03f 3ebd 5e06 523e
00000210: 7138 46bc bf9f 173d 9df4 69bd e55e 00be
00000220: 999e d1bd ee81 933c fabc 30be cefc b5bd
00000230: 96cd 45bd c12c e2bd 20a2 1cbd 2599 97bd
00000240: 09eb eabc fd91 243b fcea 073d f7b8 613d
00000250: 6d0b 263e d973 6bbd b400 c1bd 2066 3bbe
00000260: dea9 4dbc fdc7 5fbd c681 8bbb 1079 823b
00000270: f814 15be 3848 b9bd fa87 7f3d 9c3b 3dbd
00000280: d18e 8abd 8818 d6bd 9c41 613d f9d9 e83b
00000290: f3b1 3bbf 30dc e03c ebff 01bd 5004 3e3d
000002a0: b425 28be 9761 3f3d e6a7 403d ca43 e33d
000002b0: dc9b e03d 2b13 e93a f6fb 77bc 7966 b6bc
000002c0: 75ee bbbc 49aa 153d 29bb 413d 178f 663e
000002d0: ae5a dcbd 8e9f 843d 45d7 7dbe c812 873c
000002e0: 0cfa 40bd 2cf0 d7bd 7be3 a8bc 3600 e9bb
000002f0: 08e2 8ebb 0dd6 6b3d ee4b 58bd afd3 14bf
00000300: 55a5 0ab5 e32f 5f36 5ce5 bcb4 c4d0 9835
00000310: 5678 1735 507e 0a33 6726 d334 ea18 dc35
00000320: 5f79 89b5 fc4c 1233 001a f3b5 a6f4 9034
00000330: 58fd f6b2 4dfc c7b4 303d 0536 80fd 2534
00000340: 3c98 90b4 0a4f 51b3 1cae ae33 383a a634
00000350: c4ae dcb5 e05e 34b3 89e3 9d36 e113 1235
00000360: cc98 2c34 eabf ba34 73af e4b3 505a a335
00000370: 9c48 d8b3 caf8 e835 aa64 a634 e425 6cb2
00000380: c09c 8ab2 5650 c1b4 4498 8133 7ad6 52b4
00000390: 59eb bc35 f73b 2eb4 ae52 a933 3cdb 0136
000003a0: ca19 1135 2d54 c4b4 3159 83b5 4ca3 f6b2
000003b0: 52d2 5db6 3ff6 7733 b672 f7b4 95ee 10b5
000003c0: 1a49 9f33 c479 4834 2e3e 0ab4 9692 0337
000003d0: 0f7c 5736 d871 0db9 1fab e3b5 0836 0535
000003e0: f423 5e34 607d e5b4 30ee beb1 9874 a031
000003f0: 1457 1bb4 1a0a 59b5 836f f1b4 87b4 8735
0.009698316 0.054359686 -0.047412958 0.6588705 0.102469996 0.029259918 0.105933 -1.2175101
0.0030384006 -0.046549324 0.2409635 -0.109228514 0.026723014 -0.19484341 -0.06624032 -0.22500673
-0.042494457 0.003618165 -0.008370057 -0.49841645 0.29554695 0.035485685 0.110221505 -0.056338534
0.023136297 0.0519092 -0.043534122 -0.012125462 -0.15719548 -0.22526371 0.2451911 0.0068146195
-0.33832705 0.09479783 0.048647594 -0.0066797887 -0.121197954 -0.17372978 0.025087139 -0.063220665
-0.0652057 0.16206384 0.01027138 -0.2841732 -0.24956562 -0.040660154 0.033110917 -0.1246793
-0.099033654 0.0009398883 -0.0044980026 -0.03140394 -0.7553695 -0.08177163 0.10854831 0.005648745
0.0151893515 0.039018616 -0.018390195 -0.3443941 -0.08384829 0.03907144 0.049729288 -0.21660855
-3.45476e-40 -1.8523742e-28 -4.756e-41 -2.86497e-40 7.4616e-41 3.75554e-40 6.15667e-40 -2.8383e-41
-2.38449e-40 -6.1939e-40 -1.47113e-40 4.49946e-40 -1.73563e-40 4.09125e-40 1.4844e-41 1.94972e-40
-1.21634e-40 2.55884e-40 -7.62999e-40 -2.9213e-41 5.67896e-40 2.3955e-40 3.15581e-40 7.3882e-41
4.46668e-40 -4.39627e-40 -4.932e-40 -4.70664e-40 -1.40297e-40 3.509e-41 -3.27048e-40 -5.51234e-40
-2.88438e-40 1.6139e-40 -2.6016e-40 2.85086e-40 -4.25741e-40 1.86397e-40 1.04778e-40 2.43467e-40
-4.6905e-40 -6.09105e-40 5.92627e-40 1.7142e-41 -1.54674e-40 -7.1741e-40 4.68657e-40 -7.47297e-40
-6.9285e-40 -2.2638e-41 4.9656e-40 -6.110372e-39 4.94511e-40 -3.18961e-40 1.90683e-40 5.52777e-40
1.50478e-40 3.27091e-40 6.5518e-40 -7.14907e-40 -1.40447e-40 1.73436e-40 5.15434e-40 -5.15122e-40
0.0075456235 0.32452735 -0.046447694 0.20510241 -0.012098418 0.03701758 -0.057118047 -0.125362
-0.10235328 0.018006291 -0.17259589 -0.08886109 -0.048291765 -0.110436924 -0.038240552 -0.07402257
-0.028676527 0.002511143 0.033183083 0.055108037 0.16215296 -0.057483528 -0.09423962 -0.18300676
-0.0125527065 -0.054634083 -0.0042574136 0.003981717 -0.1455878 -0.09046978 0.062385537 -0.046199426
-0.06765521 -0.10453898 0.05499421 0.0071060625 -0.73318404 0.027448744 -0.031738203 0.04639083
-0.16420633 0.04672393 0.04703512 0.11096914 0.10967228 0.0017782202 -0.015135756 -0.02226566
-0.022940854 0.03653935 0.04729763 0.22515522 -0.10759483 0.06475745 -0.2478915 0.016488448
-0.047113463 -0.10543856 -0.020616284 -0.007110621 -0.004360441 0.05757718 -0.052806787 -0.58135504
-5.1649596e-07 3.3257463e-06 -3.518461e-07 1.1385641e-06 5.6426995e-07 3.224551e-08 3.9329754e-07 1.6398528e-06
-1.0242619e-06 3.406329e-08 -1.8112478e-06 2.7000095e-07 -2.8753377e-08 -3.7250211e-07 1.985416e-06 1.5459045e-07
-2.6932855e-07 -4.873349e-08 8.134177e-08 3.096227e-07 -1.6442141e-06 -4.1995804e-08 4.705453e-06 5.4418166e-07
1.6074335e-07 3.4784836e-07 -1.06489914e-07 1.2170731e-06 -1.00714914e-07 1.7357754e-06 3.0993152e-07 -1.3745623e-08
-1.6136596e-08 -3.6007503e-07 6.0347276e-08 -1.96358e-07 1.4075587e-06 -1.6226828e-07 7.884715e-08 1.935011e-06
5.405424e-07 -3.656909e-07 -9.786219e-07 -2.8712428e-08 -3.3053989e-06 5.773313e-08 -4.6090798e-07 -5.3991363e-07
7.4173116e-08 1.867075e-07 -1.2874872e-07 7.842338e-06 3.2109708e-06 -0.00013489218 -1.6962621e-06 4.9624987e-07
2.0688441e-07 -4.2745796e-07 -5.5568066e-09 4.669868e-09 -1.4467179e-07 -8.08535e-07 -4.4970884e-07 1.0110824e-06

linear1.bias f4 [32]
00000000: 20dc 3eb8 58d0 cdb8 b611 2939 4920 98ac
00000010: b898 4a30 fd9e 3aa7 e298 8e1a 943f a1ac
00000020: 40e8 20b9 aacd 42a6 b885 c12b b8ac f538
00000030: 588e 5138 2539 9237 5abd 083a 7aa4 3c2d
00000040: 7a82 d91e 36b8 0e35 6988 aaa8 f965 6d35
00000050: d9b3 9e39 342d b02e 48c8 bd39 ec3f 99b4
00000060: 3c61 6639 f528 64b9 6efc c3b0 b614 d71d
00000070: da36 b29d b04b d432 f25b 7624 9c81 05ad
-4.5504537e-05 -9.813969e-05 0.00016123694 -4.323684e-12 7.37042e-10 -2.5898873e-15 5.897682e-23 -4.582954e-12
-0.00015345309 -6.7586e-16 1.3750589e-12 0.00011714682 4.996205e-05 1.7431166e-05 0.0005216204 1.0723084e-11
2.3029733e-20 5.3167184e-07 -1.893295e-14 8.843777e-07 0.00030270105 8.011583e-11 0.0003619811 -2.854498e-07
0.00021970732 -0.00021759032 -1.4259862e-09 5.693144e-21 -4.7172923e-21 2.4714467e-08 5.3420628e-17 -7.588954e-12

bn.weight f4 [32]
00000000: 4630 ef3e a375 cb24 3bac 913e 6493 3436
00000010: 9bee 0600 f29a 859b 92e9 063a e0be 3898
00000020: f08a c3be 310d 9b3d 9b30 5b38 6165 213e
00000030: 99ea e03e 54b3 f486 b1fe a13f 58f5 4f09
00000040: dcdf 5aa3 b801 1a3d 3762 e42b 066e aa02
00000050: c53d 883f 5136 1c3b 7f12 d23e bd7d 3b2d
00000060: 8a52 f13e 91a6 f13e fceb 05b9 a7d4 2e14
00000070: 8ceb 10ad f51a a6bc d736 bb3b 1918 12b0
0.46716517 8.82365e-17 0.28451714 2.6907883e-06 6.36608e-40 -2.2103135e-22 0.0005146499 -2.387781e-24
-0.38191938 0.075708754 5.2258936e-05 0.15761329 0.43928984 -9.20461e-35 1.2655851 2.5032079e-33
-1.1865208e-17 0.037599295 1.6227634e-12 2.5042405e-37 1.064385 0.0023836086 0.41029736 1.0657639e-11
0.47133285 0.47197393 -0.0001277178 8.826693e-27 -8.237754e-12 -0.020276526 0.0057133245 -5.3148735e-10

bn.bias f4 [32]
00000000: c814 a7bd b6d2 a49d d46f b5be cb77 21bb
00000010: a846 3598 df05 1f9c 13a1 f6ba 662c 22bd
00000020: 025f 9bbd ae20 6dbe da41 6cb5 b647 793d
00000030: 8fe1 7c3e d1b3 4fa3 fb55 e23e bed5 aba2
00000040: 0277 bca2 1f5c 8ebd f46c 17b1 1f6c 60a1
00000050: 2ed8 67bf aa06 90bd 5d6b b4be 527c b6ae
00000060: 6dc4 5c3f 00ca e8be d0a2 b0ba 3a1d 30b8
00000070: 7366 a5a4 e140 d7bd 06a2 4dbc 0ae9 deaa
-0.081582606 -4.362831e-21 -0.3543688 -0.0024638053 -2.3429374e-24 -5.2616275e-22 -0.0018816314 -0.039593123
-0.07586481 -0.23156998 -8.801268e-07 0.060859405 0.24695419 -1.125957e-17 0.44206223 -4.657595e-18
-5.1083507e-18 -0.069511645 -2.2035325e-09 -7.603725e-19 -0.9056424 -0.07032521 -0.35238162 -8.2984855e-11
0.8623722 -0.45466614 -0.0013476256 -4.198889e-05 -7.17309e-17 -0.105104215 -0.012550836 -3.9596825e-13
